…
 num_neg                    | 1          
 num_workers                | 5          
 optimizer                  | Adam       
 pretrain_epochs            | 10         
 random_seed                | 0          
 save_final_results         | 1          
 test_all                   | 0          
 top_k_distill              | 50         
 topk                       | 3,5,10,20  
==========================================
Device: cuda
Load corpus from /home/dachuang234/liujiaqi/ReChorus/data/ML_1MTOPK/ContextReader_context001.pkl
#params: 2389110
BiGeaR_WideDeepTopK(
  (wide_embedding): ModuleDict(
    (c_day_f): Linear(in_features=1, out_features=1, bias=False)
    (c_hour_c): Embedding(24, 1)
    (c_period_c): Embedding(9, 1)
    (c_weekday_c): Embedding(7, 1)
    (user_id): Embedding(6033, 1)
    (item_id): Embedding(3126, 1)
  )
  (deep_embedding_layers): ModuleList(
    (0-3): 4 x ModuleDict(
      (c_day_f): Linear(in_features=1, out_features=64, bias=False)
      (c_hour_c): Embedding(24, 64)
      (c_period_c): Embedding(9, 64)
      (c_weekday_c): Embedding(7, 64)
      (user_id): Embedding(6033, 64)
      (item_id): Embedding(3126, 64)
    )
  )
  (deep_layers): ModuleList(
    (0): Linear(in_features=384, out_features=64, bias=True)
    (1): ReLU()
  )
  (prediction): Linear(in_features=64, out_features=1, bias=True)
)
Test Before Training: (HR@3:0.0212,NDCG@3:0.0147,HR@5:0.0393,NDCG@5:0.0221,HR@10:0.0901,NDCG@10:0.0383,HR@20:0.1823,NDCG@20:0.0613)                                                                                
Optimizer: Adam
Epoch 1     loss=0.3564 [80.8 s]        dev=(HR@3:0.2443,NDCG@3:0.1865) [0.6 s] *                   
Epoch 2     loss=0.3350 [78.6 s]        dev=(HR@3:0.2529,NDCG@3:0.1926) [0.5 s] *                   
…
