…
 test_all                   | 0          
 top_k_distill              | 50         
 topk                       | 3,5,10,20  
==========================================
Device: cuda
Load corpus from /home/dachuang234/liujiaqi/ReChorus/data/ML_1MTOPK/ContextReader_context001.pkl
初始化 BiGeaR_FM 参数，上下文特征: ['c_day_f', 'c_hour_c', 'c_period_c', 'c_weekday_c', 'user_id', 'item_id']
特征维度: {'user_id': 6033, 'item_id': 3126, 'c_day_f': 1040, 'c_hour_c': 24, 'c_period_c': 9, 'c_weekday_c': 7}
#params: 2392197
BiGeaR_FM_TopK(
  (context_embedding_layers): ModuleList(
    (0-3): 4 x ModuleDict(
      (c_day_f): Linear(in_features=1, out_features=64, bias=False)
      (c_hour_c): Embedding(24, 64)
      (c_period_c): Embedding(9, 64)
      (c_weekday_c): Embedding(7, 64)
      (user_id): Embedding(6033, 64)
      (item_id): Embedding(3126, 64)
    )
  )
  (linear_embedding_layers): ModuleList(
    (0-3): 4 x ModuleDict(
      (c_day_f): Linear(in_features=1, out_features=1, bias=False)
      (c_hour_c): Embedding(24, 1)
      (c_period_c): Embedding(9, 1)
      (c_weekday_c): Embedding(7, 1)
      (user_id): Embedding(6033, 1)
      (item_id): Embedding(3126, 1)
    )
  )
)
Test Before Training: (HR@3:0.0198,NDCG@3:0.0134,HR@5:0.0438,NDCG@5:0.0232,HR@10:0.0960,NDCG@10:0.0398,HR@20:0.2004,NDCG@20:0.0660)                                                                                      
Optimizer: Adam
Epoch 1     loss=0.3639 [21.5 s]        dev=(HR@3:0.0445,NDCG@3:0.0356) [0.3 s] *                   
Epoch 2     loss=0.3402 [15.6 s]        dev=(HR@3:0.2319,NDCG@3:0.1748) [0.2 s] *                   
…
