…
==========================================
Device: cuda
Reading data from "/home/dachuang234/liujiaqi/ReChorus/data/", dataset = "ML_1MTOPK" 
Counting dataset statistics...
"# user": 6032, "# item": 3125, "# entry": 574197
Collect context features...
Loading context for train set...
#Situation Feautures: 4
Loading context for dev set...
#Situation Feautures: 4
Loading context for test set...
#Situation Feautures: 4
Save corpus to /home/dachuang234/liujiaqi/ReChorus/data/ML_1MTOPK/ContextReader_context001.pkl
#params: 598001
FMTopK(
  (context_embedding): ModuleDict(
    (c_day_f): Linear(in_features=1, out_features=64, bias=False)
    (c_hour_c): Embedding(24, 64)
    (c_period_c): Embedding(9, 64)
    (c_weekday_c): Embedding(7, 64)
    (user_id): Embedding(6033, 64)
    (item_id): Embedding(3126, 64)
  )
  (linear_embedding): ModuleDict(
    (c_day_f): Linear(in_features=1, out_features=1, bias=False)
    (c_hour_c): Embedding(24, 1)
    (c_period_c): Embedding(9, 1)
    (c_weekday_c): Embedding(7, 1)
    (user_id): Embedding(6033, 1)
    (item_id): Embedding(3126, 1)
  )
)
Test Before Training: (HR@3:0.0264,NDCG@3:0.0197,HR@5:0.0463,NDCG@5:0.0277,HR@10:0.1002,NDCG@10:0.0450,HR@20:0.2129,NDCG@20:0.0733)                                                                                
Optimizer: Adam
make dirs: ../model/FMTopK                                                                          
Epoch 1     loss=0.3629 [13.3 s]        dev=(HR@3:0.2205,NDCG@3:0.1673) [0.3 s] *
…
