…
 lr                         | 0.001      
 main_metric                |            
 num_neg                    | 1          
 num_workers                | 5          
 optimizer                  | Adam       
 random_seed                | 0          
 save_final_results         | 1          
 test_all                   | 0          
 topk                       | 3,5,10,20  
==========================================
Device: cuda
Load corpus from /home/dachuang234/liujiaqi/ReChorus/data/ML_1MTOPK/ContextReader_context001.pkl
#params: 622706
WideDeepTopK(
  (context_embedding): ModuleDict(
    (c_day_f): Linear(in_features=1, out_features=64, bias=False)
    (c_hour_c): Embedding(24, 64)
    (c_period_c): Embedding(9, 64)
    (c_weekday_c): Embedding(7, 64)
    (user_id): Embedding(6033, 64)
    (item_id): Embedding(3126, 64)
  )
  (linear_embedding): ModuleDict(
    (c_day_f): Linear(in_features=1, out_features=1, bias=False)
    (c_hour_c): Embedding(24, 1)
    (c_period_c): Embedding(9, 1)
    (c_weekday_c): Embedding(7, 1)
    (user_id): Embedding(6033, 1)
    (item_id): Embedding(3126, 1)
  )
  (deep_layers): MLP_Block(
    (mlp): Sequential(
      (0): Linear(in_features=384, out_features=64, bias=True)
      (1): ReLU()
      (2): Linear(in_features=64, out_features=1, bias=True)
    )
  )
)
Test Before Training: (HR@3:0.0226,NDCG@3:0.0154,HR@5:0.0428,NDCG@5:0.0236,HR@10:0.0880,NDCG@10:0.0380,HR@20:0.1792,NDCG@20:0.0608)                                                                                
Optimizer: Adam
Epoch 1     loss=0.3584 [12.8 s]        dev=(HR@3:0.2447,NDCG@3:0.1868) [0.3 s] *                   
Epoch 2     loss=0.3426 [12.8 s]        dev=(HR@3:0.2486,NDCG@3:0.1887) [0.2 s] *                   
…
